Packt ML/12 - Intro to PyTorch/simple_log_reg.pt (torch, 161503 bytes, 4 tensors)

weight f4 [50, 784]
-0.033840112 0.06802474 -0.052807853 0.058049534 -0.026440399 -0.046778616 0.019895317 0.03384041
-0.017505324 0.06500759 -0.083202295 0.07219128 -0.07650589 0.02910639 0.026274707 0.014172947
-0.06342268 0.06289504 -0.04781945 -0.06941782 0.009490131 0.075544685 0.04238932 0.04675137
-0.036813937 0.055679124 -0.06749509 -0.019683994 -0.019514602 0.0441199 0.011597468 -0.056785062
0.028312042 0.067106694 -0.03257747 0.071724586 0.028436422 -0.067491785 0.07898592 0.029932093
-0.06888518 -0.041962776 -0.050654046 0.07188489 0.011749534 -0.07050697 -0.004388422 -0.06445859
0.029966116 0.05516738 -0.012305564 -0.06136664 0.06805692 -0.03668909 0.012604806 -0.040430773
-0.061308667 0.06748562 0.056660596 0.050720986 0.06542631 0.07296833 0.016116302 0.00829092
-0.056015033 -0.030370738 0.053695466 -0.0075379144 0.079963975 0.035269193 0.064256646 0.02706491
-0.04369455 -0.020473575 0.06431202 0.007027032 -0.030741675 0.04299778 -0.044736624 -0.017230904
-0.08588564 0.025415873 0.027444633 0.0191908 0.04391072 0.07074452 0.051919714 0.016418573
0.024644967 -0.075855434 -0.07721706 0.04595865 -0.00072285364 -0.072367795 -0.016306724 0.03682082
0.04718939 0.0012234309 -0.014089729 -0.11943373 -0.11943954 -0.06123335 -0.07530897 -0.011021718
0.08349365 0.054382503 0.034516945 -0.00019195292 0.07794954 -0.05900969 0.06554125 0.06916946
0.009249808 -0.06843359 -0.023727447 0.081360966 0.027314452 0.052379765 0.05215641 0.00608993
-0.023663862 -0.08485342 0.036045562 -0.01982489 -0.0057163932 -0.012173575 -0.030590158 0.013684663
0.0010611446 -0.033627246 -0.11586321 -0.05674067 0.07148306 -0.024927488 0.044648 -0.02073949
0.05177309 -0.022994401 0.07677646 -0.077518485 0.044790767 -0.055578243 0.010591897 0.05269043
0.0011372699 -0.017513609 -0.006687043 -0.07219628 -0.01046228 0.024449633 -0.11376353 0.068726964
-0.033230986 -0.059641078 -0.003974773 -0.08459799 0.024660537 -0.00452714 0.073110335 0.044643667
0.04384639 0.05892523 -0.045521144 -0.036856957 0.05586023 -0.013415616 -0.08363693 0.06949856
0.04745777 -0.06427354 0.048676785 0.017766884 -0.028608354 -0.08537084 -0.11464066 -0.01327565
-0.03825747 0.00055111025 -0.117441 -0.023205493 0.07639666 -0.0013226395 0.03773659 0.11320019
0.030401124 -0.011662568 -0.004751595 0.08321766 0.04468146 0.015852472 0.09880945 0.011091341
0.07633762 -0.070588924 0.03168356 -0.07044681 -0.038859535 0.05779211 0.011680165 0.020223593
-0.009024067 -0.009764423 -0.15568134 -0.13587755 -0.074565224 -0.0958912 -0.05546766 0.043934133
0.058537394 0.016570004 0.10638327 0.06981984 -0.0040378463 -0.014340478 -0.042569414 0.018833557
0.010266661 0.0638668 0.017061777 0.020857621 0.11355589 0.06233214 0.021085143 0.06378309
-0.073692486 0.0674294 0.096090704 0.0009385859 -0.11643444 -0.104202375 -0.10596221 0.016024176
0.020159423 -0.008326597 0.02936242 -0.062391244 0.012433509 0.013309734 -0.0019011699 -0.03420314
0.04739344 -0.018685713 -0.042731166 -0.101113446 -0.010280454 0.0600823 -0.02310022 0.04482625
0.10366465 0.062862866 -0.07033887 0.048257682 -0.0064774677 -0.07117588 -0.028809922 -0.032542028
00000000: ee9b 0abd 8e50 8b3d 0c4d 58bd 59c5 6d3d
00000010: 8999 d8bc ef9a 3fbd 81fb a23c 3e9c 0a3d
00000020: 5367 8fbc b322 853d f765 aabd 06d9 933d
00000030: 1faf 9cbd 8670 ee3c 0e3e d73c a635 683c
00000040: c0e3 81bd 1dcf 803d 54de 43bd ee2a 8ebd
00000050: 7f7c 1b3c 2cb7 9a3d 6ca0 2d3d 5d7e 3f3d
00000060: 36ca 16bd cb0f 643d de3a 8abd 5440 a1bc
00000070: 16dd 9fbc 11b7 343d 4e03 3e3c 7497 68bd
00000080: a8ee e73c 3c6f 893d f46f 05bd 57e4 923d
00000090: 80f3 e83c 2239 8abd 5fc3 a13d 2634 f53c
000000a0: ac13 8dbd 29e1 2bbd 9e7a 4fbd 6338 933d
000000b0: 1e81 403c f565 90bd c0cc 8fbb dd02 84bd
000000c0: 807b f53c 31f7 613d 479d 49bc 965b 7bbd
000000d0: 6d61 8b3d 4d47 16bd 6384 4e3c bd9a 25bd
000000e0: cc1e 7bbd e735 8a3d f114 683d cfc0 4f3d
000000f0: 3bfe 853d 6b70 953d 5606 843c a4d6 073c
00000100: 0570 65bd 0ecc f8bc c7ef 5b3d 9c00 f7bb
00000110: 27c4 a33d 6e76 103d fd98 833d 3bb7 dd3c
00000120: 0ef9 32bd 33b8 a7bc 05b6 833d 0443 e63b
00000130: f7d5 fbbc 711e 303d c03d 37bd d327 8dbc
00000140: cfe4 afbd f334 d03c 91d3 e03c 0636 9d3c
00000150: badb 333d 81e2 903d c4a9 543d 3e80 863c
00000160: 3ee4 c93c 185a 9bbd fa23 9ebd 233f 3c3d
00000170: e37d 3dba 9135 94bd ae95 85bc 6ed1 163d
00000180: a949 413d 875b a03a 9bd8 66bc ac99 f4bd
00000190: b89c f4bd d2cf 7abd 973b 9abd 7094 34bc
000001a0: b8fe aa3d 30c0 5e3d a461 0d3d f846 49b9
000001b0: 02a4 9f3d 25b4 71bd 7e3a 863d b8a8 8d3d
000001c0: 828c 173c e926 8cbd 1060 c2bc 94a0 a63d
000001d0: 8fc2 df3c 2a8c 563d f6a1 553d 098e c73b
000001e0: b7da c1bc a1c7 adbd 83a4 133d cf67 a2bc
000001f0: 9550 bbbb ad73 47bc 3698 fabc a335 603c
00000200: 1b16 8b3a b9bc 09bd b149 edbd e868 68bd
00000210: b665 923d bb34 ccbc d2e0 363d dde5 a9bc
00000220: 0510 543d c15e bcbc fa3c 9d3d 03c2 9ebd
00000230: 8676 373d 03a6 63bd a389 2d3c ecd1 573d
00000240: 7210 953a b378 8fbc fb1e dbbb a5db 93bd
00000250: fc69 2bbc 994a c83c dbfc e8bd b9c0 8c3d
00000260: 371d 08bd 344a 74bd d03e 82bb b641 adbd
00000270: e504 ca3c 6758 94bb dfba 953d 47dc 363d
00000280: 4698 333d 955b 713d 6174 3abd 52f7 16bd
00000290: b2cd 643d 2ccd 5bbc d749 abbd 4355 8e3d
000002a0: 1463 423d d9a1 83bd 4f61 473d db8b 913c
000002b0: 115c eabc e8d6 aebd b9c8 eabd 1d82 59bc
000002c0: ddb3 1cbd 6278 103a e884 f0bd 7219 bebc
000002d0: da75 9c3d 6b5c adba af91 1a3d 80d5 e73d
000002e0: c70b f93c 5b14 3fbc 45b3 9bbb 056e aa3d
000002f0: e803 373d 0bdd 813c 9c5c ca3d 75b8 353c
00000300: e656 9c3d ed90 90bd 9fc6 013d 6b46 90bd
00000310: 2d2b 1fbd 6bb7 6c3d 2a5e 3f3c f3ab a53c
00000320: aed9 13bc f5fa 1fbc ee6a 1fbe 7c23 0bbe
00000330: a7b5 98bd 9b62 c4bd 0f32 63bd 47f4 333d
00000340: e8c4 6f3d d1bd 873c 79df d93d b4fd 8e3d
00000350: e94f 84bb 53f4 6abc 445d 2ebd d548 9a3c
00000360: 7f35 283c 99cc 823d 24c5 8b3c 9add aa3c
00000370: fe8f e83d fc4f 7f3d c0ba ac3c b5a0 823d
00000380: 16ec 96bd 6d18 8a3d 34cb c43d 6f0b 763a
00000390: 2e75 eebd 0e68 d5bd b702 d9bd 2245 833c
000003a0: 6025 a53c 476c 08bc 7589 f03c f68d 7fbd
000003b0: ebb5 4b3c 1211 5a3c ad30 f9ba 9718 0cbd
000003c0: a01f 423d c812 99bc e006 2fbd 9114 cfbd
000003d0: 596f 28bc dc18 763d ac3c bdbc bb9b 373d
000003e0: 224e d43d 3fbe 803d d30d 90bd d9a9 453d
000003f0: f040 d4bb a9c4 91bd c902 ecbc ca4a 05bd

bias f4 [50]
-0.12303787 -0.13783905 -0.15257788 -0.14810346 -0.110682845 -0.11491658 -0.12697932 -0.091231205
-0.141819 -0.112267196 -0.14440861 -0.10777865 -0.13288829 -0.12852918 -0.13235347 -0.17410827
-0.1238941 -0.14013556 -0.08914842 -0.09259802 -0.10642197 -0.16400634 -0.12593015 -0.13299432
-0.13447185 -0.12645353 -0.13267115 -0.15258151 -0.12203285 -0.09583508 -0.118322164 -0.12260186
-0.13032372 -0.14343286 -0.117507644 -0.1323153 -0.13986567 -0.12422032 -0.12154486 -0.11858113
-0.12556255 -0.1443034 -0.09677104 -0.12997486 -0.112883024 -0.13964924 -0.11434422 -0.11259024
-0.09703233 -0.11136242
00000000: 47fb fbbd ae25 0dbe 603d 1cbe 6fa8 17be
00000010: b0ad e2bd 6259 ebbd de06 02be 6dd7 babd
00000020: 0039 11be 58ec e5bd dadf 13be 0ebb dcbd
00000030: de13 08be 279d 03be ab87 07be 7049 32be
00000040: 31bc fdbd b27f 0fbe 7293 b6bd 08a4 bdbd
00000050: c3f3 d9bd 47f1 27be d5f3 00be aa2f 08be
00000060: fdb2 09be 097d 01be f2da 07be 543e 1cbe
00000070: 5cec f9bd 2f45 c4bd e452 f2bd af16 fbbd
00000080: 9573 05be 10e0 12be d9a7 f0bd a97d 07be
00000090: f238 0fbe 3967 febd 83ec f8bd aada f2bd
000000a0: 7893 00be 45c4 13be e52f c6bd 2118 05be
000000b0: 372f e7bd 3600 0fbe 4d2d eabd b695 e6bd
000000c0: e3b8 c6bd fb11 e4bd

weight f4 [10, 50]
-0.23023988 0.45664668 0.65240145 -0.21542476 0.33802685 0.29951346 -0.5383663 0.21865784
0.17885916 0.06173412 -0.10408272 0.09560631 -0.041622546 -0.39135078 0.23244673 0.79830503
0.46065146 -0.06931142 0.41746077 -0.16010348 0.31186864 0.7252903 0.20583667 0.03895313
0.45321304 -0.4278513 -0.44701153 0.597629 0.00398151 0.41264516 0.15942542 -0.2500326
0.67320055 -0.09641571 -0.082153425 0.6714521 -0.17683017 -0.49832165 -0.067111045 0.027651997
0.13940144 -0.234758 -0.30577418 -0.3825057 -0.50441474 0.08755859 -0.49057853 0.16903941
0.1077186 -0.61496246 0.21831997 0.07328968 0.28222135 0.44776246 -0.3004005 -0.6739958
0.38596722 -0.5505635 0.29889658 -0.1235299 0.14394923 -0.29917166 0.19907612 0.24321543
0.49404478 0.8983796 -0.09244978 0.08629537 -0.2274853 -0.5478123 -0.4004469 0.74228036
-0.20352848 -0.18863498 -0.38878283 -0.024295429 0.07139568 0.13056931 -0.21531965 -0.33335778
-0.14961782 -0.14285974 -0.6483907 0.6028182 -0.5298769 -0.14448537 -0.16774367 0.679072
-0.21407586 -0.36394075 0.599222 -0.08148846 0.231209 -0.29563826 -0.20746681 0.20283271
0.5537979 -0.31947666 0.38489115 0.21725054 -0.06272053 -0.52921855 0.4940102 0.7217586
0.65239465 -0.26600462 -0.013930762 -0.33761695 -0.14921704 -0.07482368 -0.2127028 -0.32806674
0.7951141 -0.59655946 0.030957963 -0.23651423 -0.5736899 -0.26890075 -0.54674256 2.1696977e-05
0.12930965 0.21507524 -0.4332771 0.3290588 0.79837847 -0.913937 -0.24521458 0.19968854
0.438582 -0.7779331 0.2822411 0.017985515 0.1750887 0.0999555 -0.094432086 0.6748881
0.0635635 0.83106244 0.055837385 0.7045161 -0.34902194 -0.2566779 0.75466263 -0.106825106
0.566249 -0.1403699 -0.569759 -0.16278277 -0.48601744 -0.4949999 -0.56446177 0.7044951
0.6934822 0.1845917 0.19715892 -0.4232122 -0.1531757 -0.71235657 -0.14823754 -0.27558708
0.6389308 0.31511712 -0.5144596 -0.31038624 -0.20029736 0.17817837 0.6245128 0.3562572
0.7186665 0.0117452005 -0.5672314 0.018085172 -0.24006207 0.40979886 -0.21877594 0.39537314
-0.43808708 0.1296703 0.46218938 -0.65890384 0.53954625 0.37087223 0.38833594 0.12053863
-0.21570064 -0.59737283 -0.10663539 0.6798835 -0.7611019 0.018795481 -0.018062424 -0.4885806
-0.2448449 0.47374296 0.9290299 -0.043212485 0.23529981 0.4354721 -0.02283805 -0.019095693
-0.16187134 0.2419549 0.06057396 0.8090185 -0.35853773 0.48926872 -0.20629178 -0.6434971
0.40682316 0.21828344 0.03075064 -0.5445944 0.43082234 0.7982595 0.3345786 0.44642738
0.27562815 -0.15386143 -0.91653603 -0.4539246 0.49266797 0.2303144 -0.07709738 0.46606234
-0.12720868 0.56675816 0.088246815 0.6003584 0.33828634 -0.31150252 -0.19643442 0.6280756
-0.14164495 0.45681173 0.07208959 0.22489432 -0.00015797319 -0.60027426 -0.003212776 -0.66457796
-0.5034462 0.7260472 -0.5745691 0.76565474 -0.24573404 0.3197108 0.34546387 -0.20990698
-0.7240451 0.24537285 0.28325495 0.11935825 -0.6888566 0.65109944 0.112323076 -0.23365217
00000000: 01c4 6bbe 98cd e93e c803 273f 4f98 5cbe
00000010: db11 ad3e d459 993e 60d2 09bf d7e7 5f3e
00000020: db26 373e ebdc 7c3d 5229 d5bd 3ecd c33d
00000030: 677c 2abd 215f c8be 8406 6e3e b85d 4c3f
00000040: 82da eb3e 25f3 8dbd 6bbd d53e 2bf2 23be
00000050: 3fad 9f3e a0ac 393f d9c6 523e 518d 1f3d
00000060: 8a0b e83e 530f dbbe b2de e4be 37fe 183f
00000070: 5477 823b 3a46 d33e 6b40 233e 4604 80be
00000080: df56 2c3f 9a75 c5bd 0e40 a8bd 49e4 2b3f
00000090: f812 35be 0424 ffbe 8471 89bd 7186 e23c
000000a0: 40bf 0e3e 6764 70be 6f8e 9cbe cad7 c3be
000000b0: 5321 01bf eb51 b33d 1c2d fbbe ab18 2d3e
000000c0: 929b dc3d 2e6e 1dbf 458f 5f3e e618 963d
000000d0: 517f 903e 1f41 e53e 18ce 99be fd8a 2cbf
000000e0: 7f9d c53e bbf1 0cbf f908 993e 3ffd fcbd
000000f0: 6d67 133e 072d 99be 9cda 4b3e 770d 793e
00000100: 70f3 fc3e 35fc 653f 4f56 bdbd a0bb b03d
00000110: e8f1 68be 6d3d 0cbf 6007 cdbe 1606 3e3f
00000120: c569 50be 8729 41be 8b0e c7be 3507 c7bc
00000130: e637 923d f6b3 053e c17c 5cbe dfad aabe
00000140: 6a35 19be d349 12be effc 25bf 4b52 1a3f
00000150: 03a6 07bf f9f3 13be ffc4 2bbe aad7 2d3f
00000160: b436 5bbe 7156 babe 9d66 193f 6ce3 a6bd
00000170: 0dc2 6c3e e65d 97be 2e72 54be 61b3 4f3e
00000180: b3c5 0d3f 7292 a3be 7410 c53e ed76 5e3e
00000190: 9f73 80bd de7a 07bf e8ee fc3e 2cc5 383f
000001a0: 5603 273f c231 88be da3d 64bc 21dc acbe
000001b0: 5acc 18be 283d 99bd c3ce 59be 5df8 a7be
000001c0: 998c 4b3f 1fb8 18bf 8e9b fd3c c930 72be
000001d0: 57dd 12bf 5cad 89be 52f7 0bbf e701 b637
000001e0: c069 043e af3c 5c3e 7fd6 ddbe 657a a83e
000001f0: 8862 4c3f c6f7 69bf 8819 7bbe 277b 4c3e
00000200: d28d e03e a026 47bf e881 903e 5c56 933c
00000210: 744a 333e 78b5 cc3d 9c65 c1bd 77c5 2c3f
00000220: 952d 823d 82c0 543f beb5 643d 2b5b 343f
00000230: 01b3 b2be 496b 83be 9231 413f 1fc7 dabd
00000240: b2f5 103f 21bd 0fbe badb 11bf 87b0 26be
00000250: 47d7 f8be a070 fdbe 9180 10bf ca59 343f
00000260: 0d88 313f 9b05 3d3e 07e4 493e 45af d8be
00000270: 17da 1cbe 005d 36bf 95cb 17be c019 8dbe
00000280: f890 233f 0857 a13e a0b3 03bf f2ea 9ebe
00000290: c01a 4dbe 6474 363e 12e0 1f3f 5867 b63e
000002a0: 87fa 373f f16e 403c 1436 11bf 5b27 943c
000002b0: d5d2 75be 28d1 d13e cd06 60be 596e ca3e
000002c0: f34c e0be 4bc8 043e 16a4 ec3e ecad 28bf
000002d0: b41f 0a3f f7e2 bd3e f8d3 c63e f5dc f63d
000002e0: a1e0 5cbe 6ded 18bf a863 dabd d80c 2e3f
000002f0: 93d7 42bf fbf8 993c a6f7 93bc 3d27 fabe
00000300: 9fb8 7abe 708e f23e e7d4 6d3f 93ff 30bd
00000310: 6ff2 703e 33f6 de3e dd16 bbbc 926e 9cbc
00000320: 9ac1 25be 06c3 773e 671c 783d d61b 4f3f
00000330: 4292 b7be 6e81 fa3e 273e 53be 3abc 24bf
00000340: 204b d03e b285 5f3e c4e8 fb3c 8a6a 0bbf
00000350: bf94 dc3e bc5a 4c3f e34d ab3e 2192 e43e
00000360: 221f 8d3e da8d 1dbe 1ba2 6abf ce68 e8be
00000370: fa3e fc3e 8ad7 6b3e 3be5 9dbd b99f ee3e
00000380: fe42 02be 1017 113f bfba b43d 17b1 193f
00000390: de33 ad3e 427d 9fbe 1b26 49be 90c9 203f
000003a0: 600b 11be 3ae3 e93e b5a3 933d b24a 663e
000003b0: 9ba5 25b9 93ab 19bf 708d 52bb c821 2abf
000003c0: dae1 00bf 3bde 393f f616 13bf f301 443f
000003d0: b4a1 7bbe 22b1 a33e a4e0 b03e dbf1 56be
000003e0: 055b 39bf 0543 7b3e cb06 913e 1972 f43d
000003f0: e858 30bf 74ae 263f a409 e63d 8442 6fbe

bias f4 [10]
-0.043539267 -0.049599968 -0.031940274 -0.023335991 -0.041044988 -0.0287963 -0.037237715 -0.029106332
-0.03010158 -0.039948545
00000000: 3b56 32bd 5629 4bbd ced3 02bd 1f2b bfbc
00000010: ca1e 28bd 38e6 ebbc 9386 18bd 6770 eebc
00000020: 9797 f6bc 16a1 23bd
